Layer (type)                 Output Shape              Param #   
=================================================================
zero_padding2d_1 (ZeroPaddin (None, 226, 226, 3)       0         
_________________________________________________________________
conv1_1/3x3_s1 (Conv2D)      (None, 226, 226, 32)      896       
_________________________________________________________________
conv1_2/3x3_s1 (Conv2D)      (None, 226, 226, 32)      9248      
_________________________________________________________________
pool1/2x2_s1 (MaxPooling2D)  (None, 226, 226, 32)      0         
_________________________________________________________________
conv2_1/3x3_reduce (Conv2D)  (None, 226, 226, 64)      18496     
_________________________________________________________________
conv2_2/3x3_reduce (Conv2D)  (None, 226, 226, 64)      36928     
_________________________________________________________________
conv2_3/3x3_reduce (Conv2D)  (None, 226, 226, 64)      36928     
_________________________________________________________________
conv2_4/3x3_reduce (Conv2D)  (None, 226, 226, 64)      36928     
_________________________________________________________________
pool2/2x2_s1 (AveragePooling (None, 226, 226, 64)      0         
_________________________________________________________________
conv3_1/3x3_reduce (Conv2D)  (None, 226, 226, 128)     73856     
_________________________________________________________________
conv3_2/3x3_reduce (Conv2D)  (None, 226, 226, 128)     147584    
_________________________________________________________________
conv3_3/3x3_reduce (Conv2D)  (None, 226, 226, 128)     147584    
_________________________________________________________________
conv3_4/3x3_reduce (Conv2D)  (None, 226, 226, 128)     147584    
_________________________________________________________________
pool3/2x2_s1 (AveragePooling (None, 226, 226, 128)     0         
_________________________________________________________________
flatten (Flatten)            (None, 6537728)           0         
_________________________________________________________________
flatten_1 (Flatten)          (None, 6537728)           0         
_________________________________________________________________
dropout (Dropout)            (None, 6537728)           0         
_________________________________________________________________
loss3/classifier (Dense)     (None, 12)                78452748  
_________________________________________________________________
prob (Activation)            (None, 12)                0         
=================================================================
Total params: 79,108,780
Trainable params: 79,108,780
Non-trainable params: 0
_________________________________________________________________
Epoch 1/100

2021-05-23 17:48:05.970494: W tensorflow/stream_executor/platform/default/dso_loader.cc:60] Could not load dynamic library 'cudart64_110.dll'; dlerror: cudart64_110.dll not found
…
